models/best_model.pth (torch, 312501 bytes, 15 tensors)

embedding.weight f4 [10, 96]
0	0xbf4ae0aa	-0.7924906
1	0xbff2ea29	-1.897771
2	0xbf0e4f45	-0.55589706
3	0xbf5256c0	-0.8216362
4	0x3e62d6a6	0.22152194
5	0xbff4f909	-1.91385
6	0xbf12f301	-0.57402045
7	0x3f80f7a5	1.0075575
8	0x3f886f25	1.0658919
9	0xbf0c0d37	-0.54707664
10	0xbf542b68	-0.8287873
11	0x3c19a7c6	0.009378379
12	0xc00563ed	-2.084224
13	0x3f403c40	0.75091934
14	0xbfdfbc70	-1.7479382
15	0xbccdf63b	-0.025141826
16	0xbe586496	-0.2113212
17	0xbd75ce3d	-0.060011137
18	0x3d8083d3	0.062751435
19	0x3d822b71	0.06355942
20	0x3f3bc519	0.7334762
21	0x3f0627b2	0.5240432
22	0x3e9393b4	0.28823626
23	0x3f8eb9ca	1.1150448
24	0x3e07a3b0	0.13246036
25	0x4018cebc	2.387618
26	0x3cceaaae	0.02522787
27	0xbf61ce2d	-0.88205224
28	0xbf89e751	-1.0773717
29	0x3d6b6b38	0.0574753
30	0x3ee17b2c	0.44039285
31	0x3f938f36	1.152808
32	0x3f9ec56b	1.2403997
33	0xbf1acc28	-0.6046777
34	0xbd2e46b5	-0.0425479
35	0xbd9c835e	-0.07642244
36	0xbffb8905	-1.965119
37	0xbee459c8	-0.44599748
38	0xbee3dabf	-0.44502828
39	0x3d47aa18	0.0487462
40	0xbefb2779	-0.49053553
41	0x3f8c9a0a	1.0984509
42	0x3fc6fe55	1.5546366
43	0x4003dfe3	2.06054
44	0x3fac8628	1.3478441
45	0x3f983042	1.1889727
46	0x3f81b4e4	1.0133328
47	0x3eee5b64	0.465541
48	0x3ea7ff65	0.32812038
49	0x3ea3989e	0.31952375
50	0xbff39b8c	-1.9031844
51	0xbf67ded3	-0.9057438
52	0x3fe750c6	1.8071525
53	0x3f70b091	0.9401942
54	0x3dc09b93	0.094046734
55	0x3eca5c9a	0.39523774
56	0x3d4ed941	0.05050016
57	0xbe4c7450	-0.19966245
58	0x3f27320b	0.65310735
59	0xbd86e528	-0.06586677
60	0xbcf8adf9	-0.030356394
61	0x3e756e01	0.23967744
62	0x3c7a27a5	0.015268241
63	0xbf972378	-1.1807699
64	0x3f16d421	0.58917433
65	0xbe14a5a8	-0.14516318
66	0xbd1485c5	-0.036260385
67	0xbf213ca4	-0.62983155
68	0xbf817dba	-1.0116494
69	0xbfa9a5c7	-1.3253716
70	0xbf04aaaf	-0.5182294
71	0xc00246f1	-2.03558
72	0x3fc1f3c3	1.5152515
73	0x3f9e2869	1.2356082
74	0xbf76c617	-0.9639601
75	0x3da69ae7	0.08135014
76	0xc00d9036	-2.211927
77	0xbfb70c31	-1.4300596
78	0x3e7df9cf	0.24802326
79	0xbf05e7da	-0.523069
80	0x3f909be5	1.1297575
81	0xbe80db6b	-0.25167403
82	0xc00889e9	-2.1334174
83	0x3f7fe03d	0.99951535
84	0x3f43acdd	0.76435643
85	0x3d20834f	0.039187726
86	0xbebe51e9	-0.37171867
87	0x3f900ecf	1.1254519
88	0xbfd4536d	-1.658796
89	0x3fd1faac	1.6404624
90	0x3ff2c3f8	1.8966055
91	0xbc901e49	-0.017592566
92	0x3ddf0a49	0.108906336
93	0x3f3765e5	0.71639854
94	0x400cf0eb	2.2022045
95	0xbea96055	-0.33081308
96	0xbf7b9fc6	-0.9829067
97	0x3fd4ba1d	1.6619297
98	0xbf19d911	-0.6009684
99	0xbe822738	-0.25420547
100	0xbf6b0fe9	-0.9182115
101	0x3f5961ee	0.84915054
102	0xbd95c6bd	-0.07313297
103	0x3f8dc85c	1.107677
104	0xbf77f08e	-0.9685143
105	0xbd32557c	-0.043538556
106	0x3f14442b	0.57916516
107	0xbee2a64d	-0.44267502
108	0xbe42c62c	-0.19020909
109	0x3f8b903c	1.0903392
110	0xbfab6979	-1.3391563
111	0xc015303e	-2.3310695
112	0xbfb01813	-1.3757347
113	0xbf34c6d4	-0.7061589
114	0xbebd9212	-0.37025505
115	0xbdd3b800	-0.103378296
116	0xbeff689b	-0.49884495
117	0xbf33a6b3	-0.7017624
118	0xbfd6e0f1	-1.6787397
119	0xbf708b61	-0.93962675
120	0x3f5a32b1	0.852336
121	0x3ff05486	1.8775795
122	0xbece1a89	-0.4025462
123	0xbfaedee7	-1.3661774
124	0x3f47cfe7	0.7805161
125	0x3f42208c	0.7583091
126	0xbfd50958	-1.6643476
127	0x3c92a660	0.0179016
128	0x3e551e11	0.2081225
129	0x3f2baa7e	0.67057025
130	0x3fed721a	1.8550446
131	0x3e084c6d	0.13310404
132	0xbe948a7b	-0.29011902
133	0xbdb692ce	-0.089147195
134	0x3f282994	0.65688443
135	0x3d6d03ab	0.057864826
136	0x3db777d6	0.08958404
137	0xbf80c230	-1.0059261
138	0xbf892a3b	-1.0716013
139	0x3f9bc2f6	1.2168872
140	0x3f17341e	0.590639
141	0x3f47c6e0	0.78037834
142	0xc01ee362	-2.4826283
143	0xc010e8b7	-2.2642038
144	0x3f62f8c0	0.8866081
145	0x3f2ee7ac	0.68322253
146	0x3ef8be8e	0.48582882
147	0xbf510482	-0.81647503
148	0x3e8eb27b	0.27870545
149	0xc00bc17e	-2.1836848
150	0xbf3eca8b	-0.74527806
151	0xbf753a1c	-0.9579179
152	0xbf96db6f	-1.1785716
153	0x3f08a54e	0.53377235
154	0x3ec770f0	0.38953352
155	0x3fa023b7	1.2510899
156	0x3f763b8b	0.96184605
157	0xbfb814f7	-1.4381398
158	0x3f3c340a	0.73516905
159	0x3eb58b63	0.35457906
160	0xbfd8b269	-1.6929446
161	0x3f2db875	0.67859584
162	0x3e9360d2	0.28784806
163	0x3fc43b0c	1.533052
164	0x3fa10cc1	1.2582017
165	0x3f0f0ced	0.558791
166	0x3e0126d7	0.12612472
167	0xbe9a2cc8	-0.3011229
168	0xbfae5ea1	-1.3622628
169	0xbd98c501	-0.074594505
170	0x3fb719e3	1.4304775
171	0x3fa24cd0	1.2679691
172	0xbdaf0413	-0.08545699
173	0x3e8170ae	0.2528128
174	0xc01846f9	-2.3793318
175	0xbf404ece	-0.75120246
176	0x3ef0539f	0.46938798
177	0x3faadb86	1.3348243
178	0x3fba7407	1.4566659
179	0xbb9306b5	-0.0044868835
180	0xbf6c3052	-0.9226123
181	0xbfd4e314	-1.6631799
182	0xbe9e1e4a	-0.30882484
183	0x3f04656f	0.51717275
184	0x3fa9931c	1.3248019
185	0x3f2c79f9	0.67373616
186	0x3e7e11b8	0.24811447
187	0xbf660c52	-0.8986255
188	0xbfd0e908	-1.6321115
189	0xbee567ae	-0.44805664
190	0x3e993e19	0.2993019
191	0x3f79c870	0.9757147
192	0xbf0f87d2	-0.5606662
193	0x3f5ed758	0.8704734
194	0xbf18cd99	-0.5968872
195	0x3f2e79ef	0.68154806
196	0x3f828208	1.0195932
197	0xbedf16fd	-0.43572226
198	0xbd855395	-0.06510083
199	0x3fa170b2	1.2612517
200	0xbe807046	-0.25085658
201	0xbe9dbfb4	-0.3081032
202	0x3f82f226	1.0230148
203	0x3efde53c	0.49588954
204	0x3f33176e	0.69957626
205	0xbf1298c3	-0.57264346
206	0x3f01184f	0.50427717
207	0x3f1ac8e8	0.6046281
208	0x3fde4723	1.7365459
209	0xbecb47c0	-0.39703178
210	0x3e33ab56	0.17545828
211	0xbf934dfc	-1.1508174
212	0xbf076771	-0.52892214
213	0xbc8546ae	-0.016269054
214	0xbea76b2a	-0.32698947
215	0x403cbe29	2.9491065
216	0x3ee9883c	0.4561175
217	0xbf81f852	-1.0153906
218	0x3f8efee3	1.1171535
219	0x3f25bbac	0.6473949
220	0x3f879d8d	1.0594956
221	0x3db5057d	0.088389374
222	0x3fb85169	1.4399844
223	0xbf9ed14d	-1.2407624
224	0xbe94563f	-0.2897205
225	0xbfc59385	-1.5435644
226	0x3f22416d	0.6338108
227	0x3f34ea5f	0.7067012
228	0xbf4e143a	-0.80499613
229	0xbfae9b4c	-1.3641143
230	0xbfd0c8f2	-1.6311324
231	0x3e54b03c	0.20770353
232	0xbff39be6	-1.9031951
233	0x3f8928ca	1.0715573
234	0xbef25403	-0.4732972
235	0xbf04e42e	-0.51910675
236	0xbf01d854	-0.50720716
237	0x3f703529	0.93831116
238	0x401c3565	2.440759
239	0xbe299dcd	-0.16564102
240	0xbe07dde5	-0.1326824
241	0x3e84fb67	0.25973055
242	0xbd8a814d	-0.067629434
243	0x3fa0b2aa	1.2554524
244	0xbf3bfe96	-0.7343534
245	0xbe8c2e32	-0.27378994
246	0xbee7b695	-0.45256487
247	0x3fe203e1	1.7657434
248	0x3edfb3a2	0.43691736
249	0xbfa97382	-1.3238375
250	0x3eec1874	0.46112406
251	0x3fa7bdc7	1.310479
252	0xbf2b42d0	-0.6689882
253	0xbf62fed7	-0.88670105
254	0x401561a5	2.3340847
255	0x3f46f218	0.77713156

conv.att f4 [1, 4, 24]
0	0xbdadb1ed	-0.08481202
1	0xbf089679	-0.53354603
2	0x3e309ce8	0.17247355
3	0x3e597678	0.21236598
4	0x3e66e96a	0.22549978
5	0x3e223173	0.15839176
6	0x3e0b092c	0.13577718
7	0xbcc7a7bd	-0.024371976
8	0x3e9528ed	0.29132786
9	0x3ece4bce	0.4029221
10	0x3e415555	0.18880208
11	0x3e8cdad3	0.275107
12	0xbde19989	-0.11015613
13	0xbeead98f	-0.4586911
14	0xbe8207df	-0.2539663
15	0x3eb8cd43	0.36094102
16	0x3f1d633b	0.6147954
17	0x3d5dd145	0.054154653
18	0xbd5ebf58	-0.0543817
19	0xbe3738e0	-0.1789279
20	0x3ea49b47	0.32149717
21	0x3df64a21	0.12025858
22	0x3e6df152	0.23236588
23	0xbde59378	-0.11209768
24	0x3e930285	0.2871286
25	0x3dbac060	0.09118724
26	0xbee49e97	-0.44652244
27	0xbe8d0931	-0.27546075
28	0x3e9a1a9b	0.30098423
29	0x3edb2e20	0.42808628
30	0x3e0a7d91	0.13524462
31	0x3eaa029d	0.3320512
32	0xbf1af2f0	-0.60526943
33	0xbe8d5d6d	-0.2761034
34	0xbe4c6c3b	-0.19963162
35	0x3e3957bd	0.18099876
36	0xbe1f9391	-0.15583636
37	0xbed3f1e2	-0.4139548
38	0xbe313a63	-0.17307429
39	0xb964104c	-0.00021749845
40	0xbde4d881	-0.11174107
41	0xbe260d2f	-0.16215967
42	0xbe773fd5	-0.24145444
43	0x3e847ba5	0.25875583
44	0x3d8fe28a	0.07025631
45	0x3e5d4766	0.21609268
46	0x3d74c20d	0.059755374
47	0x3e3f063d	0.18654723
48	0xbe7034b9	-0.23457612
49	0xbe78174d	-0.24227639
50	0xbeb14868	-0.34625554
51	0xbec71e91	-0.38890508
52	0x3e82c21c	0.2553872
53	0xbe82c423	-0.25540265
54	0xbdb7c2bb	-0.08972689
55	0x3e9405db	0.28910717
56	0xbf1e70a0	-0.618906
57	0x3e90f67d	0.28313056
58	0xbe799ef8	-0.24377048
59	0x3e908891	0.28229192
60	0xbed46b2e	-0.41488022
61	0x3edd5920	0.4323206
62	0xbe84ce55	-0.2593867
63	0x3ecfe136	0.4060151
64	0x3d391ced	0.0451936
65	0x3ec14911	0.37751058
66	0x3e628d47	0.22124206
67	0x3ea07cc9	0.31345204
68	0x3e8e7e50	0.27830744
69	0x3e96e371	0.294704
70	0x3deb0404	0.11475375
71	0xbe317594	-0.17330009
72	0xbda716fa	-0.08158679
73	0x3e76c709	0.24099363
74	0x3e9b9276	0.30385178
75	0x3e656e4d	0.22405358
76	0xbeb87c29	-0.36032227
77	0x3c832c69	0.016012387
78	0x3ecbf5fe	0.39836115
79	0x3ebd6b4b	0.3699592
80	0x3e5735cc	0.21016616
81	0x3ea7f587	0.3280451
82	0xbe7f5900	-0.24936295
83	0x3e8db0fd	0.27674094
84	0xbf2bff03	-0.6718599
85	0xbe210f2f	-0.15728448
86	0xbea1f57d	-0.31632605
87	0x3dcde6e3	0.10053804
88	0xbe38c3e2	-0.18043473
89	0xbddad39f	-0.10684895
90	0xbe9261c7	-0.28590223
91	0xbe91b489	-0.2845805
92	0xbeae496e	-0.34040397
93	0x3e49d545	0.19710262
94	0x3de68196	0.11255185
95	0xbee452f5	-0.4459454

conv.bias f4 [96]
0	0x3dad0a3f	0.0844922
1	0x3d370e81	0.044691566
2	0xbdff5edc	-0.12469265
3	0xbdc564b4	-0.09638348
4	0xbdaaeb62	-0.08345677
5	0x3cc6f294	0.024285592
6	0x3d7cd223	0.06172384
7	0xbda4d0d9	-0.08047647
8	0xbd1dbe7a	-0.03851173
9	0x3d32bc01	0.043636326
10	0xbd5469aa	-0.05185858
11	0xbc592957	-0.013254485
12	0x3b7d5471	0.0038655067
13	0x3e0a842b	0.1352698
14	0x3c8a39e2	0.016873304
15	0x3d86f613	0.06589904
16	0xbcbb21f8	-0.022843346
17	0xbd6f6dfb	-0.058454495
18	0xbc8d6001	-0.017257692
19	0xbd3acba4	-0.045604363
20	0xbd03f2f2	-0.032214113
21	0x3bcbc20b	0.0062182
22	0x3bee9207	0.0072805914
23	0xbb8bcf63	-0.004266666
24	0x3dd34119	0.10315151
25	0x3dc24658	0.09486073
26	0xbd80a43d	-0.06281326
27	0x3b30d535	0.002698255
28	0x3c5e7bd0	0.013579324
29	0xbdc4b5aa	-0.09604962
30	0xbca5e400	-0.02025032
31	0xbd0b77a9	-0.034049664
32	0x3d70a1f2	0.058748193
33	0xbc1bc89a	-0.009508276
34	0xbd80c33b	-0.06287237
35	0xbdc901a0	-0.09814763
36	0xbd7cca79	-0.06171653
37	0xbda767d2	-0.08174099
38	0xbd82ee0d	-0.06393061
39	0xbd76df6d	-0.06027167
40	0x3c151723	0.0090997545
41	0xbda54f9d	-0.08071826
42	0x3d6906d8	0.056891292
43	0x3da7887c	0.08180329
44	0xbcd90d02	-0.02649546
45	0x3ba25dd1	0.0049550314
46	0xbb1c5d2c	-0.0023859246
47	0xbd915b4b	-0.07097491
48	0x3ddf5954	0.1090571
49	0x3d58cbcd	0.052928735
50	0x3c8658f3	0.016399836
51	0x3ddc3e42	0.10754062
52	0xbd2e58fc	-0.04256533
53	0x3dc5e30e	0.09662448
54	0xbcb8330b	-0.022485277
55	0xbdde246d	-0.108467914
56	0xbe1720ad	-0.14758559
57	0x3e13c5b2	0.14430884
58	0x3dbcde9d	0.092221476
59	0xbb7f89c5	-0.003899203
60	0xbd545aaf	-0.051844295
61	0x3ccb7f08	0.024840847
62	0xbd95d4c3	-0.07315972
63	0x3dc05c9e	0.09392665
64	0x3d952ab2	0.07283534
65	0x3d4a5b7f	0.049403664
66	0xbc8a31df	-0.016869484
67	0x3d85cf65	0.06533698
68	0x3dac725b	0.08420249
69	0xbd0f6daa	-0.035016693
70	0xbdc67c59	-0.09691686
71	0xbcb15260	-0.021645725
72	0x3d51ab27	0.051188614
73	0xbdaf082f	-0.08546483
74	0xbddf7865	-0.10911635
75	0xbe0bb140	-0.13641834
76	0x3db304cc	0.08741149
77	0xbd8d2033	-0.06890907
78	0x3d936dd0	0.071986794
79	0x3d44ccc8	0.048046857
80	0x3d449f54	0.04800351
81	0x3d90c068	0.070679486
82	0x3d27b4a1	0.040943746
83	0xbcacccd3	-0.021093762
84	0xbdd5d1c2	-0.10440399
85	0xbc89597f	-0.016766308
86	0xbc3696fc	-0.011144396
87	0xbdbde2c6	-0.09271769
88	0x3d0946dc	0.033514842
89	0xbd789323	-0.060687196
90	0x3c7b863d	0.015351829
91	0x3d114ffa	0.035476662
92	0x3ce93528	0.02846773
93	0x3db0f797	0.08640974
94	0x3d3dacf3	0.046307515
95	0x3e53386d	0.20626993

conv.lin_l.weight f4 [96, 96]
0	0xbbba507a	-0.005685863
1	0xbe1f84e4	-0.15578038
2	0xbe708109	-0.23486723
3	0x3d7df6d3	0.062002968
4	0xbd6bffe8	-0.057617098
5	0xbdb2ebcf	-0.08736383
6	0x3e280da1	0.16411449
7	0xbdbff8c5	-0.09373621
8	0x3e4da559	0.20082606
9	0xbe6e25cd	-0.23256607
10	0x3d61b33a	0.055102564
11	0xbe27ffcb	-0.16406171
12	0x3cd8d180	0.026467085
13	0xbc7ebb8d	-0.015547645
14	0x3e371b72	0.17881563
15	0x3d5a27fc	0.05326079
16	0x3e7452ac	0.23859662
17	0x3dc3eec1	0.09567023
18	0x3ca7519e	0.02042466
19	0xbe29b535	-0.16573031
20	0xbd977e44	-0.0739713
21	0xbbb20608	-0.005432848
22	0x3d235e23	0.039884698
23	0xbda01e33	-0.0781826
24	0xbe0701d3	-0.1318429
25	0x3e0d8eb1	0.13823964
26	0x3d8858cc	0.06657562
27	0xbd296f5a	-0.04136596
28	0x3e088528	0.13332045
29	0xbe8af468	-0.27139592
30	0xbe696bf6	-0.2279509
31	0xbda8f7df	-0.08250403
32	0x3da184b8	0.07886642
33	0xbd87714c	-0.066134065
34	0xbdee23c9	-0.11627919
35	0x3e28dd83	0.1649075
36	0xbde25664	-0.11051634
37	0x3cac9b0e	0.02107003
38	0xbb9385ea	-0.004502048
39	0x3e4bac11	0.19889857
40	0xbdb93b09	-0.09044463
41	0x3c4b3cf3	0.012404668
42	0xbdd3cc9e	-0.10341762
43	0x3e64c9a1	0.2234254
44	0x3e983b4c	0.2973274
45	0xbde72c7e	-0.11287783
46	0x3e8d303b	0.2757586
47	0x3e566b2c	0.2093932
48	0x3d7232be	0.059130423
49	0x3de2adb0	0.110682845
50	0xbca6db89	-0.020368354
51	0x3caee48d	0.021349216
52	0x3d3ea4a0	0.046543717
53	0xbe064c3a	-0.13115016
54	0x3e242dec	0.16033143
55	0x3d98a04f	0.074524514
56	0x3d8e4ab2	0.06947841
57	0x3e3a24ad	0.18178053
58	0x3d439acc	0.047755048
59	0x3e7d861b	0.24758188
60	0x3e3e9962	0.18613198
61	0xbd9df917	-0.07713526
62	0x3e141ad4	0.14463359
63	0xbcf3947a	-0.029733885
64	0x3e1e35fc	0.15450281
65	0x3d947da3	0.07250526
66	0xbd83ef06	-0.064420745
67	0x3cbb2b4f	0.0228478
68	0xbc30c6cd	-0.010789585
69	0x3cbef77b	0.023311367
70	0x3e4b5a35	0.1985863
71	0x3b8fdbdb	0.0043902225
72	0x3db117f8	0.0864715
73	0x3e4775a7	0.19478475
74	0x3de0d533	0.109781645
75	0xbe0fe30b	-0.14051454
76	0xbd4c7748	-0.049918443
77	0x3de1127a	0.10989852
78	0xbc319071	-0.01083766
79	0xbe09047e	-0.1338062
80	0xbe2fe359	-0.1717657
81	0xbd8848a1	-0.06654478
82	0x3d5d059a	0.05396042
83	0x3d65060f	0.05591398
84	0x3e00dcc8	0.12584221
85	0x3e1eeb2f	0.15519403
86	0xbbbd40a0	-0.005775526
87	0xbcc1bbbe	-0.023649093
88	0xbdc743b8	-0.09729713
89	0x3e54e462	0.20790246
90	0x3e0ad8d9	0.13559283
91	0xbdaabe6d	-0.08337102
92	0xbe64423f	-0.22290896
93	0x3e02cd5b	0.1277365
94	0x3db737a0	0.089461565
95	0xbdfe484e	-0.12416135
96	0xbe1bbb50	-0.15208173
97	0xbe835b99	-0.2565582
98	0xbdc59e15	-0.096492924
99	0xbe843b4e	-0.25826496
100	0x3db6ff83	0.08935454
101	0xbe8b2301	-0.27175143
102	0xbd6889f0	-0.056772172
103	0xbdd403cd	-0.103522874
104	0xbd688b86	-0.056773685
105	0x3e280c0b	0.16410844
106	0xbe46dd11	-0.19420268
107	0x3bc4108f	0.0059834193
108	0x3df7c1af	0.12097489
109	0x3dd8b9bf	0.10582303
110	0x3de6c935	0.11268846
111	0xbd9a6e23	-0.07540538
112	0x3cbcf333	0.023065185
113	0x3daf1b06	0.08550076
114	0x3c4fb9c4	0.012678567
115	0xbd04785c	-0.032341346
116	0x3dab477d	0.08363245
117	0xbb9a0ec9	-0.0047014696
118	0x3d866c15	0.06563584
119	0xbd81bfc0	-0.063354015
120	0xbe066910	-0.13126016
121	0x3cdae10e	0.026718643
122	0xbdb85b66	-0.09001808
123	0x3e32c97f	0.17459677
124	0x3d9f7652	0.0778624
125	0xbd69f402	-0.05711747
126	0x3e07377d	0.13204761
127	0xbd51fa0a	-0.051263846
128	0xbe542f09	-0.20721067
129	0xbe154943	-0.14578728
130	0xbc1472b5	-0.009060551
131	0x3e33a329	0.1754271
132	0xbe163afc	-0.14670938
133	0xbe52b838	-0.20578086
134	0xbe8c7f08	-0.27440667
135	0xbe03a8f8	-0.12857425
136	0x3e1eed6c	0.15520257
137	0xbe9aa7c2	-0.30206114
138	0xbe843eb0	-0.25829077
139	0x3d551f95	0.052032072
140	0xbe19aa86	-0.15006456
141	0xbe2a27c7	-0.16616736
142	0x3e7348cb	0.23758237
143	0x3cd4f152	0.025993977
144	0x3d825915	0.06364647
145	0xbcef0244	-0.029175885
146	0x3dd69fb1	0.104796775
147	0x3df55342	0.11978771
148	0x3ca69e9e	0.020339306
149	0x3c9b864a	0.018984932
150	0x3d266657	0.040624943
151	0x3d62cf5f	0.055373546
152	0x3d212a8e	0.039347224
153	0xbd9a228e	-0.07526122
154	0x3c758921	0.014986307
155	0x3d744576	0.059636556
156	0xbc650f06	-0.013980633
157	0x3da1d26f	0.07901465
158	0x3e2ef63b	0.17086117
159	0xbd30d61f	-0.04317295
160	0xbdd9a5d3	-0.106273316
161	0xbe58886d	-0.21145792
162	0xbe31a752	-0.17348984
163	0xbd1bff8f	-0.038085517
164	0x3e40dc96	0.18834147
165	0x3e02ce36	0.12773976
166	0x3d569b7c	0.052394375
167	0x3e6c154a	0.23054996
168	0xbd7612d8	-0.060076565
169	0xbdba19e4	-0.090869695
170	0xbdc8e445	-0.09809164
171	0x3e071bf7	0.13194261
172	0x3dc4a920	0.096025705
173	0x3e23e111	0.16003825
174	0xbd671bf3	-0.05642314
175	0x3d93d8fd	0.072191216
176	0xbd9e8369	-0.07739908
177	0x3e213b07	0.15745173
178	0xbdbe6df4	-0.09298316
179	0xbdeeaefe	-0.11654471
180	0x3cb7958c	0.022410177
181	0x3d5afeb9	0.05346558
182	0xbe279649	-0.16365923
183	0xbc938ef0	-0.018012494
184	0x3d5257d7	0.0513533
185	0x3d97faf6	0.07420914
186	0xbce01ebb	-0.027358403
187	0x3daabdfa	0.083370164
188	0xbe879d14	-0.2648703
189	0x3d1caf00	0.03825283
190	0xbddf4e51	-0.109036095
191	0x3d86b7ea	0.065780476
192	0x3dfac0b6	0.12243788
193	0x3bd0781f	0.006361976
194	0x3e54a425	0.20765741
195	0xbe1a3b14	-0.15061599
196	0xbe355b69	-0.17710651
197	0xbd3029f8	-0.043008775
198	0x3c5e83ec	0.013581257
199	0x3dea27dd	0.114333846
200	0xbdda1878	-0.10649198
201	0x3e532fcf	0.20623706
202	0xbd30a450	-0.04312545
203	0x3dcc14a4	0.099648744
204	0x3c9c70c2	0.019096736
205	0xbe63cf81	-0.22247125
206	0xbcd428a1	-0.02589828
207	0xbde355a0	-0.11100316
208	0x3df13c19	0.11779041
209	0xbd806eb0	-0.06271112
210	0x3d1ddb6c	0.038539335
211	0x3b78c989	0.0037961921
212	0x3cd417da	0.02589028
213	0x3d6de80d	0.05808263
214	0x3df5da58	0.120045364
215	0x3cb9384d	0.022609854
216	0xbc264b4c	-0.010149788
217	0x3c6413c0	0.013920724
218	0xbe15951e	-0.14607665
219	0x3dd67294	0.10471073
220	0x3dd4b5de	0.10386251
221	0xbd8c318e	-0.06845389
222	0xbda767af	-0.08174073
223	0xbe03c97e	-0.12869832
224	0x3e2919d6	0.16513762
225	0xbe7bc1f1	-0.24585702
226	0x3e376acc	0.17911834
227	0xbe58bf79	-0.21166791
228	0x3dc2b088	0.09506327
229	0x3e7a7e36	0.24462208
230	0x3d85756a	0.065165356
231	0x3d68731b	0.056750398
232	0x3d9f28fd	0.0777149
233	0x3d949d81	0.07256604
234	0x3dc988d2	0.098405495
235	0xbbcdb57c	-0.006277738
236	0xbc33390e	-0.010938896
237	0x3da75cd5	0.08172003
238	0x3e504686	0.20339403
239	0xbdc83d6f	-0.097773425
240	0xbd948b4c	-0.07253131
241	0xbceabd5c	-0.028654747
242	0x3e365575	0.17806037
243	0x3e0a9990	0.13535142
244	0xbe7d4432	-0.24733046
245	0x3cbf817c	0.023377173
246	0x3e0456ad	0.12923689
247	0xbdd8221a	-0.10553379
248	0xbd832612	-0.06403746
249	0xbc2f570f	-0.010701909
250	0xbdfb2d7d	-0.122645356
251	0xbd89001c	-0.06689474
252	0x3d341291	0.04396302
253	0xbc9c295f	-0.019062696
254	0x3d79c51f	0.060979005
255	0xbd3313e4	-0.04372014

conv.lin_l.bias f4 [96]
0	0x3e18f962	0.14938882
1	0x3d32a9d1	0.04361898
2	0xbe0a5c1e	-0.13511702
3	0x3c45dfa0	0.012077242
4	0xbd078bc8	-0.03309229
5	0xb9fc9448	-0.00048175664
6	0x3d49a249	0.049227033
7	0xbc4411b7	-0.011967114
8	0xbe5003bf	-0.20313929
9	0x3d37e62d	0.044897247
10	0xbcbce768	-0.023059562
11	0x3da7bd8e	0.081904516
12	0xbd8ff813	-0.07029738
13	0x3e7a5036	0.2444466
14	0x3e1d503a	0.15362635
15	0x3e0974e5	0.13423498
16	0xbd92f9a7	-0.07176524
17	0xbd9798f9	-0.07402224
18	0x3db8de45	0.090267695
19	0x3d637948	0.055535585
20	0xbde2d968	-0.11076623
21	0xbdbe0045	-0.09277395
22	0x3df9123b	0.1216168
23	0x3cbfa6eb	0.023395022
24	0xbd400190	-0.04687649
25	0x3e18e78b	0.14932077
26	0xbd71c0cb	-0.059021752
27	0xbc9aabf9	-0.018880831
28	0xbe0eb3d2	-0.13935784
29	0xbdb25d92	-0.08709253
30	0xbe1c975d	-0.15292116
31	0xbe2fcfdb	-0.17169134
32	0x3e663f15	0.22485001
33	0xbcb43c24	-0.022001334
34	0x3c844721	0.016147198
35	0xbc78fece	-0.015197469
36	0xbe1b47af	-0.15164064
37	0xbe3ad60f	-0.1824572
38	0xbe1c7209	-0.15277876
39	0xbd2b1c5e	-0.0417751
40	0xbcfc9d5f	-0.03083676
41	0xbe59abf0	-0.21256995
42	0xbdff012e	-0.12451397
43	0xbc8143b4	-0.015779354
44	0xbb93d4b5	-0.0045114406
45	0xbe2088e1	-0.15677215
46	0x3dbcc349	0.09216935
47	0x3d0cb431	0.03435153
48	0x3e5c2d11	0.21501566
49	0x3bcdbb5a	0.0062784376
50	0xbd8542db	-0.06506892
51	0xbc4ff17a	-0.01269185
52	0x3d1e3424	0.038623944
53	0x3e394899	0.180941
54	0xbdcf09fb	-0.101093255
55	0xbdf9ce38	-0.12197536
56	0xbe1a1c2c	-0.15049809
57	0x3e0d897b	0.13821976
58	0x3b8a7018	0.0042247884
59	0xbcc27067	-0.023735238
60	0xbd1200bf	-0.035645243
61	0xbddf29da	-0.108966544
62	0xbd84e156	-0.06488292
63	0xbd9c9755	-0.07646052
64	0x3d5154ea	0.05110637
65	0xbd6c434c	-0.057681367
66	0xbe0298cf	-0.12753604
67	0x3d8c2a79	0.068440385
68	0xbd41961a	-0.04726229
69	0xbcea2579	-0.028582321
70	0xbdfc54d8	-0.1232087
71	0x3cb11212	0.021615062
72	0x3db72274	0.08942118
73	0xbc821be9	-0.01588245
74	0xbdde8997	-0.10866087
75	0xbea7f03f	-0.3280048
76	0x3d1e6df6	0.038679086
77	0xbd1df40d	-0.038562823
78	0xbc15f92f	-0.009153648
79	0x3dcaef9d	0.09908984
80	0xbd03764d	-0.032095242
81	0x3d1c490c	0.0381556
82	0x3e25daf8	0.16196811
83	0x3db79275	0.08963481
84	0xbb437d64	-0.0029829377
85	0xbcd6b69a	-0.026210118
86	0xbd18c02e	-0.03729265
87	0xbdab9e7d	-0.083798386
88	0x3c9c88e7	0.019108249
89	0xbe24c61c	-0.16091198
90	0x3c6aa236	0.014320901
91	0x3e176566	0.14784774
92	0x3d52f24d	0.051500607
93	0x3e187b6c	0.14890832
94	0x3cac3bf9	0.021024691
95	0x3e0b18a6	0.13583621

conv.lin_r.weight f4 [96, 96]
0	0xbeacf4be	-0.33780473
1	0x3dde5a3f	0.10857057
2	0xbce8f96a	-0.028439242
3	0x3d535c26	0.05160155
4	0x3e10d823	0.1414495
5	0x3e11e800	0.14248657
6	0x3e4c45ec	0.19948548
7	0x3d2ec701	0.042670254
8	0x3e7a1943	0.24423699
9	0xbd3fa30c	-0.046786353
10	0xbc9d8a44	-0.01923097
11	0xbe96f91b	-0.29486927
12	0xbe1ddd71	-0.15416504
13	0xbe1432eb	-0.14472549
14	0x3c4772e5	0.012173389
15	0xbe34efed	-0.1766965
16	0x3e193764	0.14962536
17	0x3dfa40fb	0.12219425
18	0x3e642915	0.22281297
19	0x3a0776f7	0.00051675685
20	0xbe2785eb	-0.1635968
21	0x3ded5f8b	0.11590489
22	0x3c6bb90f	0.014387383
23	0xbd5b5708	-0.053549796
24	0xbd61e0bf	-0.055145975
25	0xbdf4dd49	-0.11956269
26	0x3e012d84	0.12615019
27	0x3e088d32	0.13335112
28	0x3d335149	0.04377869
29	0x3cf74030	0.030181974
30	0x3e5577dc	0.20846504
31	0x3e333ef6	0.17504486
32	0xbe25a003	-0.16174321
33	0x3d3fb0a8	0.046799332
34	0xbd70bc81	-0.05877352
35	0xbd434a04	-0.04767801
36	0xbed27f54	-0.4111277
37	0xbe41ffd5	-0.18945248
38	0x3e1f1afb	0.15537636
39	0x3e1a125e	0.15046069
40	0x3e0df63a	0.13863459
41	0x3d8e0ba9	0.06935818
42	0x3df2bfde	0.11853002
43	0x3dc1ff79	0.09472556
44	0xbda41343	-0.080114864
45	0xbddcbb6c	-0.107779354
46	0xbcb4dfdb	-0.022079399
47	0x3bffffa5	0.0078124576
48	0xbe8bdaf0	-0.27315474
49	0x3d6e9e2b	0.05825631
50	0xbdae6e22	-0.085171
51	0x3d81659f	0.06318211
52	0xbd970fec	-0.07376084
53	0x3d7d5bc5	0.061855096
54	0xbdd450cb	-0.103669725
55	0x3d2d843d	0.04236244
56	0x3e1adad2	0.15122536
57	0x3ddfb5f5	0.109233774
58	0x3d9bfed7	0.07616966
59	0xbeb28eab	-0.34874472
60	0xbd7ceb47	-0.061747815
61	0x3c306ff6	0.010768881
62	0x3e24015a	0.1601614
63	0x3db15711	0.08659185
64	0x3e8ce36d	0.27517262
65	0x3e27310b	0.16327302
66	0x3ca58b15	0.020207921
67	0x3da3ea35	0.08003656
68	0xbe099dc4	-0.13439089
69	0x3e085a05	0.1331559
70	0xbe975894	-0.29559767
71	0x3dc6002b	0.09668001
72	0x3e5746cd	0.21023102
73	0xbcf54b9f	-0.029943286
74	0xbdd11e53	-0.10210862
75	0xbdf86d22	-0.121301904
76	0xbe4cd416	-0.2000278
77	0xbe3e82ea	-0.18604627
78	0xbe0aec6e	-0.13566753
79	0xbca4a9bd	-0.020100469
80	0xbe2b6eb1	-0.16741444
81	0x3ba095d0	0.0049006715
82	0xbe57d068	-0.21075594
83	0x3c24f70a	0.010068664
84	0x3e6d2048	0.23156846
85	0x3dbbc248	0.091679156
86	0xbe366d53	-0.17815141
87	0xbe654a3a	-0.22391596
88	0x3e77067d	0.24123569
89	0xbdee5c3c	-0.11638686
90	0x39dcf88b	0.0004214685
91	0xbda88b2c	-0.0822967
92	0xbe7f60bc	-0.24939245
93	0x3da6d287	0.08145624
94	0x3e3d3e7f	0.18480872
95	0x3e00a18f	0.1256163
96	0x3c4c6ccc	0.012477111
97	0x3e8cda03	0.2751008
98	0x3db60f20	0.088896036
99	0x3ef6fa78	0.48237967
100	0xbe4515b3	-0.19246559
101	0x3e16ac2a	0.14714113
102	0x3e411687	0.1885625
103	0xbd457ff0	-0.048217714
104	0xbdd3834f	-0.103277795
105	0xbea5b95a	-0.32367975
106	0x3e991412	0.29898125
107	0xbf09bdaf	-0.5380506
108	0xbea872a4	-0.32899964
109	0xbe05f502	-0.13081744
110	0xbeb10ea3	-0.3458148
111	0xbd233b7e	-0.039851658
112	0xbe667778	-0.22506511
113	0xbe8499d6	-0.25898618
114	0x3d276e24	0.040876523
115	0xbba5274e	-0.005040086
116	0xbee18559	-0.4404705
117	0xbdf8cc62	-0.12148358
118	0xbdefa2a3	-0.11700942
119	0xbe607210	-0.21918511
120	0x3ed7bc61	0.4213591
121	0xbdf95b1e	-0.12175582
122	0xbdd1df25	-0.102476396
123	0xbf02f46b	-0.511542
124	0xbe9b7420	-0.30362034
125	0x3df910a6	0.121613786
126	0xbeb7a3b1	-0.35867074
127	0xbea6bfd6	-0.32568234
128	0x3e66fc77	0.22557245
129	0x3dfd8283	0.12378409
130	0xbe82203d	-0.2541522
131	0x3e85eb93	0.2615629
132	0x3e02a7c4	0.1275931
133	0x3e980d78	0.29697776
134	0x3e5e509a	0.21710435
135	0xbe636e4d	-0.22210045
136	0xbeaeba75	-0.3412663
137	0xbe26afb0	-0.16277957
138	0x3dd5e21d	0.10443518
139	0xbe4026f6	-0.18764862
140	0xbdd886d9	-0.10572595
141	0x3e139c37	0.1441506
142	0xbeb2c89e	-0.34918684
143	0xbe72ba09	-0.2370378
144	0xbed9b2cb	-0.4251922
145	0xbe203ef7	-0.15649019
146	0x3e1d9871	0.15390183
147	0xbe9a5dc5	-0.30149665
148	0xbe0917f6	-0.13388047
149	0x3e874145	0.26416984
150	0xbec88ab5	-0.39168325
151	0x3d8a4206	0.06750874
152	0x3e4c321c	0.1994099
153	0xbe7b30ea	-0.24530378
154	0x3ea1aafc	0.31575763
155	0x3f079421	0.529604
156	0xbe1b6cfa	-0.1517829
157	0x3d46d6ed	0.048544813
158	0x3e00686a	0.12539831
159	0x3e7a719c	0.24457401
160	0x3e8fed4f	0.2811074
161	0x3e8303c6	0.25588816
162	0x3d08dda7	0.03341451
163	0xbc5cbe83	-0.013473156
164	0x3f08c9a6	0.5343269
165	0x3e7482dd	0.23878045
166	0xbe5b65a3	-0.2142549
167	0x3c4ed697	0.012624404
168	0x3c6ad218	0.014332317
169	0xbd8a7b3d	-0.06761787
170	0xbdf69e39	-0.12041897
171	0xbee98d20	-0.45615482
172	0x3ddd233e	0.107977375
173	0x3e2d3787	0.16915713
174	0xbda953b5	-0.08267919
175	0x3e2677a0	0.16256571
176	0x3e094290	0.13404298
177	0xbe9edaee	-0.31026405
178	0xbd60e658	-0.054907173
179	0xbd012291	-0.031527106
180	0xbe1ce4cf	-0.15321659
181	0xbe38075e	-0.1797156
182	0x3d5ad76b	0.053428095
183	0x3ee10f61	0.43957046
184	0x3e7c3962	0.24631265
185	0xbed9f25a	-0.42567712
186	0x3e7eeb52	0.24894455
187	0x3e69a776	0.22817788
188	0x3eafc435	0.34329382
189	0x3eb59a1a	0.35469133
190	0x3d7c3be2	0.061580546
191	0xbe9182d1	-0.28420117
192	0xbe6e3148	-0.23260987
193	0x3e3ff5c9	0.18746103
194	0x3d5b3087	0.053513076
195	0xbe17569f	-0.14779137
196	0x3cd473ca	0.025934119
197	0xbd28e906	-0.041237853
198	0x3e7a682c	0.24453801
199	0x3b81f743	0.0039662435
200	0x3eaf0ad4	0.3418795
201	0x3db86ac0	0.09004736
202	0xbdc95353	-0.09830346
203	0xbdfe6c68	-0.124230206
204	0xbe2c4d01	-0.1682625
205	0xbe6422ab	-0.2227885
206	0xbe53fe8b	-0.20702569
207	0x3e09388c	0.13400477
208	0x3d7a6558	0.061131805
209	0x3e31bafd	0.17356487
210	0xbc7fd831	-0.015615509
211	0x3db7f43c	0.08982131
212	0xbdbe7baa	-0.09300931
213	0xbe170dcf	-0.14751361
214	0xbdbb6f15	-0.091520466
215	0xbe06c1e7	-0.13159905
216	0xbd5f09f0	-0.054452837
217	0x3eb01e22	0.3439799
218	0x3def794a	0.11693056
219	0x3e80c69e	0.25151533
220	0x3e1eef61	0.15521003
221	0x3b7d31f5	0.0038634513
222	0xbe56453b	-0.20924847
223	0x3d936216	0.07196443
224	0x3e420043	0.18945412
225	0xbe38a9ef	-0.18033575
226	0xbb5579ed	-0.0032573894
227	0x3d65c997	0.056100454
228	0xbe916363	-0.2839614
229	0xbe08c4c0	-0.13356304
230	0xbe1f32e0	-0.15546751
231	0x3d65b88e	0.05608421
232	0x3b1bd8b1	0.0023780281
233	0xbc32a386	-0.010903245
234	0x3e0f1825	0.13974054
235	0x3e7e0d3c	0.24809736
236	0xbdb0891a	-0.086199
237	0xbe1fef65	-0.15618666
238	0x3d86522a	0.0655864
239	0x3e818d9c	0.25303352
240	0xbdc0046d	-0.09375844
241	0x3da7e0bf	0.08197164
242	0x3cc4b8e1	0.024013938
243	0xbe591a16	-0.21201357
244	0x3ea521fa	0.32252485
245	0x3acf09c9	0.0015795763
246	0xbe34e40f	-0.17665122
247	0x3e965555	0.29361978
248	0x3ef7a71a	0.48369676
249	0xbe3377e3	-0.17526202
250	0xbcc5c3d8	-0.024141237
251	0xbe0b1833	-0.1358345
252	0x3d5f2dac	0.054486915
253	0xbecd10cc	-0.40051877
254	0x3ea0c819	0.31402662
255	0x3e664bf0	0.22489905

conv.lin_r.bias f4 [96]
0	0xbdb52406	-0.088447616
1	0x3d83c337	0.06433719
2	0x3e1fb40b	0.15596025
3	0x3e0fc8fd	0.14041515
4	0xbb99a53e	-0.004688888
5	0xbe1f1f84	-0.15539366
6	0x3e3bd687	0.18343554
7	0xbe371391	-0.17878558
8	0x3df38ca6	0.11892061
9	0x3ddeece8	0.1088503
10	0xbcbd255b	-0.023089102
11	0xbd899dd8	-0.067195594
12	0xbe38d0a7	-0.18048345
13	0xbd693070	-0.05693096
14	0xbdabb430	-0.083839774
15	0x3c47137d	0.012150642
16	0x3b1d8d65	0.0024040577
17	0xbdcfc4c9	-0.10144956
18	0xbe56e488	-0.20985615
19	0xbdae7fbc	-0.08520457
20	0xbd308769	-0.043097887
21	0x3d2940e0	0.041321635
22	0x3dffc4bb	0.12488695
23	0xbd9b4375	-0.07581226
24	0xbd7211b8	-0.05909893
25	0x3cfdb07d	0.030967945
26	0xbd210d96	-0.039319597
27	0x3d611ba8	0.054958016
28	0x3d973ba4	0.073844224
29	0xbdd6aee8	-0.104825795
30	0xbd9b6de7	-0.075893216
31	0xbd0241c6	-0.031801008
32	0x3c385eec	0.0112531
33	0xbe040ab4	-0.12894708
34	0x3dffaa42	0.12483646
35	0xbb83fb14	-0.0040277336
36	0xbdd52e34	-0.10409203
37	0x3d8fee4d	0.07027874
38	0x3cca5863	0.02470035
39	0xbdf3d387	-0.1190558
40	0xbdd98e5b	-0.10622855
41	0xbe6cf258	-0.23139322
42	0xbda0b461	-0.078469045
43	0xbdad8943	-0.08473446
44	0xbe8aee7a	-0.27135068
45	0xbd555e54	-0.05209191
46	0x3d8c2bae	0.06844269
47	0x3df5a33b	0.11994024
48	0x3e2b7db2	0.16747168
49	0xbdf25ae9	-0.11833746
50	0xbe06ca56	-0.13163123
51	0xbbf30b38	-0.007417109
52	0x3d995281	0.074864395
53	0xbdc75861	-0.09733654
54	0xbcef18f8	-0.02918671
55	0x3e4795d5	0.1949075
56	0x3e2430e6	0.16034278
57	0xbe618c6b	-0.22026221
58	0xbe4f254b	-0.2022907
59	0x3def4b0f	0.11684238
60	0xbe07166d	-0.13192149
61	0xbc0514ad	-0.008122605
62	0x3c8bfacc	0.017087363
63	0xbdd69bed	-0.10478959
64	0xbcdc201d	-0.026870782
65	0xbd0f612f	-0.03500479
66	0xbdab7b6d	-0.08373151
67	0xbdbc717d	-0.09201334
68	0xbe5969f2	-0.21231821
69	0x3bd4a0b9	0.006488886
70	0xbce91c20	-0.028455794
71	0xbd60dd0d	-0.05489831
72	0xbda68cde	-0.08132337
73	0xbe3e4442	-0.18580726
74	0xbe1f5f71	-0.15563752
75	0xbe1ef2ff	-0.15522383
76	0xbba04ec5	-0.0048922026
77	0xbdcbd7a8	-0.099532425
78	0xbd392199	-0.045198057
79	0xbd8e4c54	-0.06948152
80	0x3d866b81	0.065634735
81	0xbded633c	-0.11591193
82	0x3e0f6cff	0.14006422
83	0xbd766fcb	-0.060165208
84	0xbd0f6fd7	-0.03501877
85	0xbc645e7e	-0.013938544
86	0xbdcf02b7	-0.1010794
87	0xbe1e7bd0	-0.15476918
88	0x3e7d8224	0.24756676
89	0xbde8b01e	-0.11361717
90	0xbd2e4631	-0.04254741
91	0x3cafeef2	0.021476243
92	0x3da79108	0.081819594
93	0x3d133f2f	0.03594893
94	0x3d2edb15	0.0426894
95	0xbdaf103f	-0.085480206

norm.weight f4 [96]
0	0x3f48e133	0.78468627
1	0x3f68b981	0.90908056
2	0x3f2a7e02	0.6659852
3	0x3f3dd0e0	0.7414684
4	0x3f55e0e4	0.8354628
5	0x3f3a5276	0.72782075
6	0x3f3c3bb0	0.73528576
7	0x3f4aa37c	0.7915571
8	0x3f5da09d	0.865732
9	0x3f0f83cc	0.5606048
10	0x3f325f79	0.6967693
11	0x3f5de369	0.86675125
12	0x3f3d801a	0.7402359
13	0x3f8ce17b	1.1006311
14	0x3f4c8335	0.79887706
15	0x3f843d4d	1.0331208
16	0x3f6d8dce	0.927945
17	0x3f28135b	0.65654534
18	0x3f4eef0b	0.808335
19	0x3f3a51c5	0.7278102
20	0x3f609d52	0.8774005
21	0x3f42e47c	0.7612989
22	0x3f63167c	0.88706183
23	0x3f281f12	0.6567241
24	0x3f4c8231	0.79886156
25	0x3f069583	0.52571887
26	0x3f1ad0fc	0.60475135
27	0x3f74df5c	0.9565332
28	0x3f258265	0.6465209
29	0x3f261887	0.64881176
30	0x3f521181	0.8205796
31	0x3f67c923	0.90541285
32	0x3f8b8444	1.0899739
33	0x3f5775ce	0.8416413
34	0x3f60c1d5	0.87795764
35	0x3f4e2b73	0.8053505
36	0x3f495167	0.78639835
37	0x3f5ff5c7	0.874844
38	0x3f348eb4	0.7053025
39	0x3f47cf6d	0.7805088
40	0x3f2e10f8	0.6799464
41	0x3f555f1b	0.83348244
42	0x3f4c27be	0.7974814
43	0x3f3260aa	0.6967875
44	0x3f3136b9	0.69224125
45	0x3f4b851d	0.7949999
46	0x3f10ad44	0.5651438
47	0x3f2d715b	0.6775109
48	0x3f58f5ce	0.8475007
49	0x3f6e498e	0.93080986
50	0x3f4b1cfc	0.793411
51	0x3f65a76a	0.8970858
52	0x3f21e910	0.6324625
53	0x3f7ec15c	0.99513793
54	0x3f727c01	0.94720465
55	0x3f7a340a	0.97735655
56	0x3f39f1e6	0.7263473
57	0x3f696e3d	0.91183835
58	0x3f580806	0.8438724
59	0x3f613b0a	0.8798071
60	0x3f27e65f	0.65585893
61	0x3f864cf4	1.0492234
62	0x3f542167	0.8286347
63	0x3f4e135c	0.8049829
64	0x3f94ec76	1.1634662
65	0x3f9c6423	1.2218059
66	0x3f917ccb	1.1366209
67	0x3f7f241d	0.9966448
68	0x3f752c99	0.95771176
69	0x3f50ead0	0.81608295
70	0x3f4cb29b	0.7996003
71	0x3f34fe36	0.70700395
72	0x3f77ad56	0.96748865
73	0x3f5119f4	0.81680226
74	0x3f414dfe	0.7550963
75	0x3f3fd4a7	0.74933857
76	0x3f78f69e	0.9725131
77	0x3f61d0b2	0.8820907
78	0x3f3c64c5	0.7359126
79	0x3f7ca4fc	0.98689246
80	0x3f4b0668	0.7930665
81	0x3f45e468	0.77301645
82	0x3f667aa0	0.9003086
83	0x3f601836	0.8753694
84	0x3f549305	0.83036834
85	0x3f76d210	0.9641428
86	0x3f1a897d	0.6036604
87	0x3f61d325	0.88212806
88	0x3f7fc649	0.99911934
89	0x3f4f3350	0.8093767
90	0x3f468b3a	0.7755619
91	0x3f5b0b5e	0.8556422
92	0x3f6c2f8c	0.9226005
93	0x3f7874e6	0.9705337
94	0x3f6c8675	0.92392665
95	0x3f970c4a	1.1800625

norm.bias f4 [96]
0	0x3e1bf105	0.1522866
1	0x3da51901	0.0806141
2	0x3dcae69d	0.09907267
3	0xbda081c9	-0.078372546
4	0xbe1aaf46	-0.15105924
5	0xbd2d7615	-0.04234894
6	0xbd58d3e6	-0.052936457
7	0x3dc5122c	0.09622607
8	0xbe1ce848	-0.15322983
9	0xbe5efbcc	-0.2177574
10	0xbd4b3ed2	-0.049620457
11	0xbd6b7b82	-0.057490833
12	0x3d9c90d4	0.07644811
13	0x3ddd1b7c	0.10796258
14	0x3da84bb1	0.08217562
15	0x3b9c1400	0.0047631264
16	0xbdc2f6a7	-0.095197015
17	0xbc8924c2	-0.01674116
18	0x3d0b54fd	0.034016598
19	0x3d17a402	0.037021644
20	0xbdb1545d	-0.08658669
21	0xbd04f0cf	-0.032456215
22	0xbd841a40	-0.06450319
23	0x3d7c1dd7	0.061551895
24	0x3e29a1ac	0.16565579
25	0xbe520c80	-0.20512581
26	0x3e111a7f	0.14170264
27	0x3da29151	0.07937873
28	0xbc69146d	-0.014226061
29	0x3e31d74b	0.17367284
30	0xbdf518ba	-0.11967607
31	0xbe0d10ac	-0.13775891
32	0x3d84bf06	0.06481747
33	0x3d4b234e	0.049594216
34	0xbd2365bc	-0.039891943
35	0x3d3f74bd	0.04674219
36	0x3dfdd650	0.123943925
37	0x3d2cb4ca	0.0421646
38	0x3e6789d9	0.22611178
39	0xbda20e9a	-0.07912941
40	0xbd0d2ea3	-0.034468304
41	0x3db3222b	0.087467514
42	0x3b962bf6	0.0045828773
43	0x3e37c4ba	0.17946139
44	0xbd75b2c8	-0.059984952
45	0xbd884327	-0.06653433
46	0x3dc3525e	0.09537195
47	0xbc2eece2	-0.010676594
48	0x3e255bb5	0.16148265
49	0x3cb76f54	0.022391953
50	0xbc369240	-0.011143267
51	0x3e0a58ee	0.13510486
52	0xbe04ac46	-0.12956342
53	0x3c4be363	0.01244435
54	0xbd3bdfb2	-0.04586763
55	0xbe366f20	-0.17815828
56	0x3dde1347	0.108435206
57	0x3d6df6e7	0.058096793
58	0x3d82a98a	0.06379993
59	0xbd91e8c4	-0.07124475
60	0x3dd392e3	0.10330751
61	0xbcec8710	-0.028872997
62	0x3da103dd	0.07862065
63	0x3dad44fb	0.084604226
64	0xbd90a929	-0.07063515
65	0x3b2b3a75	0.0026127372
66	0x3a3a6bca	0.0007111399
67	0x3c314dc8	0.010821767
68	0xbced75b4	-0.02898679
69	0xbdc47aec	-0.09593758
70	0xbe4903d9	-0.19630374
71	0x3e1064af	0.14100908
72	0x3d6612a0	0.056170106
73	0xbb7a141c	-0.0038158959
74	0x3dab1eb2	0.08355464
75	0x3d0716a3	0.032980572
76	0x3cc4a80e	0.024005916
77	0xbe47ae59	-0.19500102
78	0xbdc82515	-0.09772698
79	0xba7c1b41	-0.0009617098
80	0xbe3d20ff	-0.18469618
81	0xbd2d27fc	-0.04227446
82	0x3da52452	0.08063568
83	0x3d065e50	0.032804787
84	0x3d07f4d9	0.03319249
85	0x3d025011	0.03181464
86	0x3e896ca6	0.26840705
87	0xbdf65aba	-0.120290235
88	0x3d019625	0.03163733
89	0x3e203e6d	0.15648814
90	0x3e415283	0.18879132
91	0x3d1c075b	0.038092952
92	0xbb9c9e98	-0.004779648
93	0x3d9103bf	0.07080793
94	0xbcf00166	-0.029297542
95	0x3e0bec94	0.13664466

rnn.weight_ih f4 [288, 96]
0	0x3dd4fc8a	0.103997305
1	0xbda76c7e	-0.0817499
2	0x3dc91f6f	0.098204486
3	0x3da2130d	0.0791379
4	0xbdc48e84	-0.09597495
5	0x3d790d68	0.0608038
6	0x3dbded03	0.09273722
7	0xbc0c9d53	-0.008582431
8	0xbd565e79	-0.05233619
9	0xbe2734e4	-0.1632877
10	0x3dcab344	0.098974735
11	0xbdd46351	-0.103705056
12	0x3df89797	0.121382885
13	0x3d383ffb	0.04498289
14	0x3d386ca3	0.04502548
15	0xbb3166d2	-0.0027069342
16	0x3dc055f1	0.09391392
17	0x3c746267	0.014916039
18	0xbc714c92	-0.014727728
19	0xbd043909	-0.032280955
20	0xbdab2dc1	-0.08358336
21	0xbc99b926	-0.018765043
22	0x3d47c3e6	0.048770808
23	0x3d51f563	0.05125941
24	0x3c63f8e5	0.013914322
25	0xbdbfb529	-0.093607254
26	0x3e3e0a9d	0.18558736
27	0xbc40e7e5	-0.011774038
28	0xbdc5d4dc	-0.0965974
29	0x3b13c737	0.0022549161
30	0x3b6f629e	0.0036527286
31	0xbe5222dd	-0.20521112
32	0x3e2bf8b9	0.16794099
33	0x3df893d9	0.12137575
34	0xbd20e7d8	-0.039283603
35	0x3cd7be89	0.026335971
36	0x3d9aab7e	0.07552241
37	0x3dd1b5a1	0.10239721
38	0x3d400efb	0.046889286
39	0xbe6bea8d	-0.23038693
40	0x3d259dfe	0.040433876
41	0x3d00db04	0.03145887
42	0x3db155dc	0.086589545
43	0x3c80a256	0.015702408
44	0x3d2a63d1	0.0415991
45	0xbddbe10d	-0.107362844
46	0x3dde7234	0.10861626
47	0xbe2ec8f3	-0.17068844
48	0x3ddff46d	0.109352924
49	0xbe473f35	-0.19457705
50	0xbdfc1c95	-0.12310139
51	0x3de89c9f	0.11357998
52	0x3d2ee3c6	0.04269769
53	0xbd15662e	-0.0364744
54	0x3e2b2199	0.16712035
55	0xbe0a7bf6	-0.1352385
56	0x3d9b7a1e	0.075916514
57	0xbe00f2c0	-0.12592602
58	0x3dd28900	0.10280037
59	0x3b5b5d56	0.003347238
60	0x3de0ae7a	0.10970779
61	0xbd95e1ad	-0.07318435
62	0x3cc79778	0.024364218
63	0xbde55527	-0.11197882
64	0xbe82ebec	-0.2557062
65	0xbd1d2919	-0.038369272
66	0x3dd5872b	0.10426172
67	0xbc214894	-0.009843964
68	0x3cd38140	0.025818467
69	0x3dfdb1cb	0.12387427
70	0x3cbd0b41	0.023076655
71	0x3cbd4969	0.023106294
72	0xbc8da2a2	-0.017289463
73	0x3dd394df	0.10331129
74	0x3e23eb6c	0.16007775
75	0xbc3fb4c5	-0.011700814
76	0x3dcde5bc	0.10053584
77	0x39c9521d	0.00038398887
78	0xbdebefb9	-0.11520333
79	0x3d295e7e	0.04134988
80	0x3e0ff0bf	0.14056681
81	0xbdc97f32	-0.09838714
82	0x3e2da320	0.16956758
83	0xbd36447f	-0.044498917
84	0x3d6536f3	0.055960607
85	0x3e572bd1	0.21012808
86	0x3cb39eb3	0.02192626
87	0x3db4b4c1	0.088235386
88	0x3e33f84d	0.17575188
89	0x3e25982f	0.16171335
90	0x3e4b7960	0.1987052
91	0x3e71b10f	0.23602699
92	0xbd8bab83	-0.06819823
93	0x3e30a088	0.17248738
94	0x3d3de911	0.046364848
95	0x3d5f39a3	0.054498326
96	0x3bff2697	0.0077865827
97	0xbe246c19	-0.16056861
98	0xbe82b201	-0.2552643
99	0xbd4fcd84	-0.050733104
100	0xbe0b3e5d	-0.13598008
101	0xbd42bad6	-0.047541462
102	0x3d5de553	0.05417378
103	0xbe7dd8cb	-0.24789731
104	0x3e01f1a7	0.1268984
105	0x3e465170	0.19367003
106	0x3d7a8d35	0.06116982
107	0xbd331d21	-0.04372895
108	0x3dd09648	0.10184914
109	0x3d28b375	0.04118677
110	0xbe0212e8	-0.12702525
111	0x3e2743dd	0.16334482
112	0x3d39e97e	0.04538869
113	0xbd70b1ff	-0.0587635
114	0x3d84ac0a	0.06478126
115	0x3d8fb598	0.07017058
116	0xbda3495e	-0.07972978
117	0x3db61b2a	0.088919
118	0x3e4d8747	0.20071135
119	0x3e0c7ef0	0.13720298
120	0x3e33ecae	0.17570755
121	0x3e80db3e	0.2516727
122	0xbe2d552e	-0.16927025
123	0xbdd927db	-0.10603305
124	0x3da49c57	0.08037632
125	0xbea3dfae	-0.32006592
126	0xbc9a4c96	-0.018835347
127	0x3e87e785	0.26543823
128	0xbb9b56fd	-0.0047405944
129	0x3dfa6d03	0.122278236
130	0xbe04f747	-0.12984954
131	0x3c890236	0.016724687
132	0xbdcad129	-0.099031754
133	0xbe782064	-0.24231106
134	0xbe783dd6	-0.24242339
135	0x3d925222	0.07144572
136	0x3d4e1fea	0.050323404
137	0xbc540fe3	-0.012943241
138	0x3df92180	0.12164593
139	0xbe187fa7	-0.14892446
140	0x3e2fd787	0.17172061
141	0xbdd82142	-0.105532184
142	0x3928eb6c	0.0001610943
143	0xbca48f51	-0.02008787
144	0xbc801f87	-0.015640033
145	0x3d61faf9	0.055170987
146	0x3aba5b6f	0.0014217923
147	0xbd30c7cf	-0.043159302
148	0xbdf3c14d	-0.119021036
149	0x39e37401	0.00043383244
150	0x3dd66e2f	0.104702346
151	0x3df915e1	0.12162376
152	0xbe32985e	-0.17440936
153	0x3e90d120	0.2828455
154	0x3d1daa5c	0.038492545
155	0xbd3780b5	-0.04480048
156	0xbe65c9a3	-0.224402
157	0xbd1e0fb7	-0.038589206
158	0xbdbc30b1	-0.09188975
159	0x3e01f563	0.12691264
160	0x3c4acf35	0.012378504
161	0x3d8d7cbb	0.06908556
162	0xbd93bdd7	-0.072139435
163	0xbc52adf3	-0.012858856
164	0x3d02c2a5	0.03192391
165	0xbddbef21	-0.107389696
166	0x3dbd23b1	0.09235323
167	0xbe389177	-0.1802424
168	0x3e59bf8a	0.21264473
169	0xbdd4a1ce	-0.10382424
170	0xbe3b8633	-0.18312912
171	0xbdfef984	-0.12449935
172	0xbbe707ac	-0.007050475
173	0xbddabe8b	-0.106808744
174	0xbca4c1c4	-0.020111926
175	0x3e50e041	0.20398046
176	0xbdd17e4f	-0.102291696
177	0x3b74b304	0.0037338147
178	0xbd5053c8	-0.05086115
179	0x3de15072	0.11001672
180	0xbdfe60ea	-0.12420829
181	0x3ddbed11	0.10738576
182	0xbd72461d	-0.059148896
183	0x3d74bfa2	0.059753068
184	0xbdb0fa96	-0.086415455
185	0xbe6a8cac	-0.22905225
186	0xbe39f849	-0.1816112
187	0x3dc8043e	0.09766434
188	0x3d65626a	0.056002058
189	0x3ccb4532	0.024813268
190	0xbe26e053	-0.1629651
191	0x3e652012	0.22375515
192	0xbcecab74	-0.028890349
193	0x3d3d3b29	0.046198998
194	0x3e360875	0.17776664
195	0xbdc3022b	-0.09521898
196	0xbcaa60d3	-0.020798123
197	0x3dd6c953	0.10487618
198	0xbeae2a69	-0.3401673
199	0xbd20f87d	-0.039299477
200	0x3d81466a	0.063122585
201	0x3db0a364	0.08624914
202	0xbe07060c	-0.131859
203	0xbe2120a9	-0.15735115
204	0xbd84489e	-0.06459163
205	0xbdbd1a7e	-0.092335686
206	0x3e142a0a	0.14469162
207	0xbddc5a5b	-0.107594214
208	0x3de4d9c1	0.11174346
209	0xbd19afce	-0.037521176
210	0x3e6a9038	0.22906578
211	0x3e4d84fd	0.20070262
212	0x3e098686	0.13430223
213	0x3e3ec96a	0.18631521
214	0xbe27f0ae	-0.16400406
215	0xbdb6333c	-0.08896491
216	0xbe006240	-0.1253748
217	0x3db050f1	0.08609188
218	0xbdac493f	-0.08412408
219	0x3c1c3b05	0.009535556
220	0x3d2f5269	0.0428032
221	0x3c788f74	0.015170921
222	0x3e3e458a	0.18581215
223	0x3e353b33	0.17698364
224	0xbe5515b5	-0.20809062
225	0xbe103110	-0.14081216
226	0x3d627787	0.05528977
227	0xbdd124db	-0.10212108
228	0x3d34bfdb	0.04412828
229	0x3da46b86	0.08028321
230	0x3cbd30ca	0.023094554
231	0xbc806c88	-0.015676752
232	0x3dd3853d	0.103281476
233	0x3e45ce63	0.19317012
234	0x3e7ce97b	0.2469844
235	0xbc0d10b9	-0.008609944
236	0x3e77e468	0.24208224
237	0x3dae48af	0.08509957
238	0xbcb0fd90	-0.021605283
239	0xbcbf2ec9	-0.023337739
240	0xbeaa208c	-0.33227956
241	0x3e25c27e	0.16187474
242	0x3e8bd91f	0.27314088
243	0xbd5302c5	-0.051516313
244	0xbdb05c01	-0.08611298
245	0xbd75bff9	-0.059997533
246	0x3da2d71f	0.07951187
247	0x3e8c2fd3	0.27380237
248	0x3d5af62f	0.053457435
249	0xbdb3e5ca	-0.08784063
250	0x3e6d4c64	0.23173672
251	0xb876ddce	-5.8857542e-05
252	0x3d8ca6c9	0.06867749
253	0xbe3a3e8b	-0.18187921
254	0x3ddb9b16	0.1072294
255	0x3e14b1cb	0.14520948

rnn.weight_hh f4 [288, 96]
0	0x3d038157	0.03210577
1	0x3dc63a78	0.09679121
2	0x3d05ea65	0.03269424
3	0xbe34eba3	-0.17668013
4	0xbe2b1800	-0.16708374
5	0x3b87002b	0.004119893
6	0xbe63436d	-0.2219369
7	0x3d707902	0.058709152
8	0xbdfcf0e6	-0.12350635
9	0xbdcf33c5	-0.10117296
10	0x3c8d7a56	0.017270248
11	0xbe09f954	-0.13474017
12	0x3e8c579e	0.27410597
13	0xbdc542ba	-0.09631868
14	0x3dca8afc	0.098897904
15	0x3e68374f	0.22677349
16	0x3e987adc	0.29781234
17	0xbe322f02	-0.17400745
18	0x3d53911d	0.051652063
19	0xbd0ba3a9	-0.034091625
20	0xbe10b372	-0.14130953
21	0xbe87a520	-0.26493168
22	0xbe5b804c	-0.2143566
23	0xbdced5d8	-0.10099381
24	0x3d9dad0a	0.0769902
25	0xbe68e1d6	-0.227424
26	0xbc50c1bb	-0.012741501
27	0xbe7ca4dc	-0.24672264
28	0xbd60e89e	-0.05490934
29	0x3e347346	0.17622098
30	0xbc2b8fe7	-0.010471321
31	0x3dbf49c1	0.09340239
32	0x3e68e785	0.22744568
33	0x3e0f6a77	0.14005457
34	0xbe072437	-0.13197409
35	0xbc8c2d1a	-0.01711135
36	0x3d761f31	0.06008834
37	0x3eb934f9	0.36173227
38	0x3e9bb86e	0.30414146
39	0x3cb5e2e9	0.022202926
40	0x3d778f13	0.06043918
41	0xbe58add7	-0.21160065
42	0x3ac9136b	0.001534087
43	0xbdd42e82	-0.10360433
44	0xbe026d46	-0.12736997
45	0x3c67b68f	0.014142646
46	0xbe07bdfd	-0.13256069
47	0xbe65e536	-0.22450718
48	0xbca89759	-0.02057998
49	0x3d481465	0.048847575
50	0x3e5b993a	0.2144517
51	0xbbc1a466	-0.0059094904
52	0xbdab0a7a	-0.083516076
53	0x3e9b192e	0.30292648
54	0x3e742cc7	0.23845206
55	0xbb866315	-0.004101167
56	0xbea7cab4	-0.32771838
57	0xbdfd00fb	-0.12353703
58	0xbc9cbdf8	-0.019133553
59	0x3d39a8ec	0.045327112
60	0x3e96f399	0.29482725
61	0xbe2c0a2a	-0.16800752
62	0x3ca7e443	0.020494586
63	0xbe1da164	-0.15393597
64	0xbd842c83	-0.064538024
65	0xbcc32976	-0.023823481
66	0x3d665266	0.056230925
67	0xbd2aa73b	-0.04166339
68	0x3e011ad5	0.12607892
69	0xbe4575e3	-0.19283251
70	0xbe0ee666	-0.13955078
71	0xbe2bb3fe	-0.1676788
72	0xbd12e7ba	-0.035865523
73	0xbd988265	-0.07446746
74	0x3cddedfa	0.027091015
75	0x3e175499	0.14778365
76	0x3ea3cdde	0.31993002
77	0xbe04edb5	-0.12981303
78	0xbca24d8a	-0.019812364
79	0xbe12472a	-0.1428496
80	0x3d73b6bd	0.059500445
81	0xbce07462	-0.027399246
82	0x3e201467	0.15632783
83	0x3de6e2a9	0.11273701
84	0x3dcb9db3	0.09942188
85	0xbd30dd43	-0.04317976
86	0xbcf2be86	-0.029631864
87	0x3d642bc9	0.05570582
88	0xbdf2b051	-0.11850036
89	0xbcb31299	-0.021859454
90	0x3e416434	0.1888588
91	0x3e8f7298	0.28017116
92	0xbe92049b	-0.2851914
93	0x3bddae79	0.0067651835
94	0x3d339da5	0.043851513
95	0xbcc4cf94	-0.024024762
96	0xbda3409f	-0.0797131
97	0x3d2bc82f	0.041938957
98	0x3e2c585f	0.16830586
99	0xbd6468a2	-0.055763848
100	0x3d0096a2	0.031393655
101	0x3d8f4394	0.069953114
102	0x3e990a77	0.29890797
103	0xbe7562c5	-0.23963459
104	0xbdfe9c58	-0.12432164
105	0xbba59f2c	-0.005054375
106	0xbd0fc75d	-0.035102237
107	0x3d895eb1	0.06707514
108	0xbd8e7f3d	-0.069578625
109	0x3e698d53	0.22807817
110	0xbc4f3814	-0.012647647
111	0xbdb977df	-0.09056067
112	0xbdd6a531	-0.104807265
113	0xbd62b90f	-0.055352267
114	0xbc1aa088	-0.009437688
115	0x3ad28a29	0.0016062903
116	0x3dad6517	0.08466547
117	0xbcd1461b	-0.025546124
118	0x3d8d0f93	0.06887736
119	0x3e3469c3	0.1761847
120	0xbe18782b	-0.1488959
121	0x3c3dc8c5	0.011583512
122	0xbe54b2e1	-0.20771362
123	0x3e16940d	0.14704914
124	0x3e2a2aaf	0.16617845
125	0xbe36e3f8	-0.178604
126	0xbe085ac2	-0.13315871
127	0xbe830f24	-0.2559749
128	0xbdac7ea7	-0.084225945
129	0x3df3fbfc	0.119132966
130	0x3e14938a	0.14509407
131	0x3e6b3f8b	0.22973458
132	0x3e126293	0.14295416
133	0x3da8dc89	0.08245189
134	0xbba0314a	-0.004888688
135	0xbd69670a	-0.05698303
136	0xbe108990	-0.14114976
137	0xbe34308f	-0.17596649
138	0xbe1387d9	-0.1440729
139	0x3cfaf914	0.030636348
140	0xbdeb2292	-0.11481203
141	0xbdc5e69a	-0.096631244
142	0x3dac7cc3	0.08422234
143	0xbdbf7346	-0.093481585
144	0x3df7384a	0.12071283
145	0xbe3d15db	-0.18465368
146	0x3c126d32	0.008937167
147	0xbe246388	-0.16053593
148	0xbde61ded	-0.11236177
149	0xbe082c0d	-0.13298054
150	0xbe77013b	-0.24121563
151	0x3e6e0d50	0.23247266
152	0x3e219a3e	0.15781495
153	0xbe41a6e5	-0.18911321
154	0x3e034a11	0.12821223
155	0x3c049e3f	0.008094369
156	0xbe555b63	-0.20835643
157	0x3e70a9ac	0.23502225
158	0x3cb17789	0.021663444
159	0x3d998b15	0.07497231
160	0x3e56bbdf	0.20970105
161	0xbd33d458	-0.04390368
162	0xbdd3b202	-0.10336687
163	0x3dcc41a8	0.099734604
164	0x3cc39e1a	0.0238791
165	0x3e79061e	0.2431874
166	0xbdb49de5	-0.088191785
167	0x3de777c3	0.113021396
168	0x3c45fbe7	0.012083984
169	0xbe0b0582	-0.1357632
170	0xbcd3a293	-0.025834357
171	0x3cce6f89	0.025199668
172	0x3d2bdb78	0.04195735
173	0x3dddfe2c	0.10839495
174	0xbcbaa3af	-0.022783129
175	0x3e91efe7	0.28503343
176	0xbe0ab5ba	-0.13545886
177	0x3df7b6bc	0.12095401
178	0xbd224bcd	-0.03962307
179	0xbe1c9b18	-0.15293539
180	0xbe32bbaa	-0.174544
181	0x3e89f966	0.26948088
182	0x3e4b174c	0.19833106
183	0xbc85189d	-0.016247088
184	0x3e1e90ce	0.15484926
185	0x3d74312c	0.059617206
186	0xbe28278c	-0.16421336
187	0xbe268dc7	-0.16265021
188	0x3e83bbcc	0.25729215
189	0xbd44dc6b	-0.04806177
190	0xbbf4a085	-0.0074654245
191	0x3c06c696	0.0082260575
192	0x3c907512	0.017633948
193	0xbe7bfe66	-0.24608764
194	0x3d7550e3	0.059891593
195	0xbcd3ebcb	-0.02586927
196	0x3c419c16	0.011816999
197	0xbb5d556c	-0.003377284
198	0xbd975afa	-0.07390399
199	0x3e2a0c79	0.1660632
200	0x3d967394	0.073462635
201	0xbc1fb75b	-0.009748305
202	0x3c8c5dd1	0.017134579
203	0x3cc552e2	0.024087373
204	0x3d2bc639	0.041937087
205	0xbe13df8c	-0.14440745
206	0xbe6c09bf	-0.23050593
207	0xbe18e508	-0.14931118
208	0xbe166900	-0.14688492
209	0x3cd5c0bf	0.026092885
210	0x3e801be0	0.25021267
211	0x3e0a7e08	0.1352464
212	0x3d2d50e7	0.042313483
213	0x3d967d61	0.07348133
214	0xbd1e8861	-0.03870428
215	0x3c503c3c	0.0127096735
216	0xbdc89fda	-0.09796114
217	0xbdcbd038	-0.09951824
218	0xbdd2609f	-0.10272335
219	0xbb942646	-0.004521164
220	0x3d0419d3	0.03225119
221	0x3e131724	0.14364296
222	0xbe0691da	-0.13141575
223	0x3e04797f	0.12936972
224	0x3d5aabe1	0.053386573
225	0xbe1d103b	-0.15338223
226	0x3d5bd7e5	0.05367269
227	0xbdb06018	-0.086120784
228	0x3d5b12b5	0.053484637
229	0x3e1d6786	0.15371522
230	0x3d0a12b2	0.033709235
231	0x3e5fd531	0.2185867
232	0xbd215dc2	-0.039396055
233	0x3d685897	0.05672511
234	0xbd7a0f79	-0.061049912
235	0xbd39be7e	-0.045347683
236	0x3de86cb6	0.1134886
237	0x3e01f010	0.12689233
238	0xbdd84930	-0.105608344
239	0xbe45f203	-0.19330601
240	0xbcff5065	-0.031166265
241	0x3e3d715b	0.18500273
242	0x3e1b7a8f	0.15183471
243	0xbde2fe47	-0.11083656
244	0xbc83c08e	-0.016083028
245	0xbd86b0a9	-0.06576664
246	0x3d800308	0.06250578
247	0x3e2ef8f8	0.17087162
248	0xbe9a037e	-0.3008079
249	0xbe2f2c45	-0.17106731
250	0x3e8304d4	0.2558962
251	0xbeb8965f	-0.36052224
252	0x3d8256c2	0.06364204
253	0xbd8fd98d	-0.070239164
254	0xbc33dd59	-0.010978066
255	0xbdfc8fd0	-0.123321176
